…
el associations between all the missing drug-ADR pairs. If successful, we will be able to forecast if a specific drug has any potential but unreported side effects, which helps the clinical pharmacology and pharmacovigilance practice.

For our data, the model parameters are summarized below (only 15k parameters, yay):

<pre><output>
_______________________________________________________________________________
Layer (type)                  Output Shape      Param #     Connected to
===============================================================================
input_1 (InputLayer)            (None, 1)         0
_______________________________________________________________________________
input_2 (InputLayer)            (None, 1)         0
_______________________________________________________________________________
embedding_1 (Embedding)       (None, 1, 10)       7460      input_1[0][0]
_______________________________________________________________________________
embedding_2 (Embedding)       (None, 1, 10)       8170      input_2[0][0]
_______________________________________________________________________________
flatten_1 (Flatten)             (None, 10)        0         embedding_1[0][0]
_______________________________________________________________________________
flatten_2 (Flatten)             (None, 10)        0         embedding_2[0][0]
_______________________________________________________________________________
dot_1 (Dot)                     (None, 1)         0         flatten_1[0][0]
                                                            flatten_2[0][0]
_______________________________________________________________________________
dense_1 (Dense)                 (None, 1)         2         dot_1[0][0]
===============================================================================
Total params: 15,632
Trainable params: 15,632
Non-trainable params: 0
_______________________________________________________________________________

</output></pre>

## Code and Results

Let's code it up with R + Keras and train it on GPU:

<script src="https://gist.github.com/nanxstats/9a958fcd8c5a348a00116128afd7758f.js"></script>
…
